…
/home/sxr280/miniconda3/envs/deeploc_torch/lib/python3.8/site-packages/pytorch_lightning/loggers/wandb.py:395: UserWarning: There is a wandb run already in progress and newly created instances of `WandbLogger` will reuse this run. If this is not desired, call `wandb.finish()` before instantiating `WandbLogger`.
  rank_zero_warn(
==========================================================================================
Layer (type:depth-idx)                   Output Shape              Param #
==========================================================================================
LightningModel                           [2, 9]                    --
├─CustomizedModel: 1-1                   [2, 9]                    --
│    └─Attention_mask: 2-1               [2, 256, 3]               20,720
│    │    └─Tanh: 3-1                    [2, 80, 8000]             --
│    └─Flatten: 2-2                      [2, 768]                  --
│    └─Embedding: 2-3                    [2, 4]                    76
│    └─Linear: 2-4                       [2, 100]                  76,900
│    └─Actvation: 2-5                    [2, 104]                  --
│    └─Dropout: 2-6                      [2, 104]                  --
│    └─Linear: 2-7                       [2, 9]                    945
│    └─Sigmoid: 2-8                      [2, 9]                    --
==========================================================================================
Total params: 98,641
Trainable params: 98,641
Non-trainable params: 0
Total mult-adds (M): 0.16
==========================================================================================
Input size (MB): 16.45
Forward/backward pass size (MB): 0.00
Params size (MB): 0.31
Estimated Total Size (MB): 16.76
==========================================================================================
…
