…
/home/sxr280/miniconda3/envs/deeploc_torch/lib/python3.8/site-packages/lightning_fabric/plugins/environments/slurm.py:166: PossibleUserWarning: The `srun` command is available on your system but is not used. HINT: If your intention is to run Lightning on SLURM, prepend your python command with `srun` like so: srun python train_model.py ...
  rank_zero_warn(
GPU available: True (cuda), used: True
TPU available: False, using: 0 TPU cores
IPU available: False, using: 0 IPUs
HPU available: False, using: 0 HPUs
==========================================================================================
Layer (type:depth-idx)                   Output Shape              Param #
==========================================================================================
LightningModel                           [2, 9]                    --
├─CustomizedModel: 1-1                   [2, 9]                    --
│    └─MaxPool1d: 2-1                    [2, 256, 1000]            --
│    └─Dropout: 2-2                      [2, 256, 1000]            --
│    └─Attention_mask: 2-3               [2, 256, 3]               --
│    │    └─Linear: 3-1                  [2, 1000, 80]             20,480
│    │    └─Tanh: 3-2                    [2, 1000, 80]             --
│    │    └─Linear: 3-3                  [2, 1000, 3]              240
│    └─Flatten: 2-4                      [2, 768]                  --
│    └─Embedding: 2-5                    [2, 4]                    76
│    └─Linear: 2-6                       [2, 100]                  76,900
│    └─Actvation: 2-7                    [2, 104]                  --
│    └─Dropout: 2-8                      [2, 104]                  --
│    └─Linear: 2-9                       [2, 9]                    945
│    └─Sigmoid: 2-10                     [2, 9]                    --
==========================================================================================
Total params: 98,641
Trainable params: 98,641
Non-trainable params: 0
Total mult-adds (M): 0.20
==========================================================================================
Input size (MB): 16.39
Forward/backward pass size (MB): 1.33
Params size (MB): 0.39
Estimated Total Size (MB): 18.12
==========================================================================================
…
