…
Resolving data files: 100%|█████████████████████████████████████████████████████████████████████████████████████| 75/75 [00:00<00:00, 320665.44it/s]
Resolving data files: 100%|█████████████████████████████████████████████████████████████████████████████████████| 94/94 [00:00<00:00, 307059.64it/s]
loading the dataset...
embed: torch.Size([2, 2560, 1000])
mask: torch.Size([2, 1000])
==========================================================================================
Layer (type:depth-idx)                   Output Shape              Param #
==========================================================================================
LightningModel                           [2, 9]                    --
├─CustomizedModel: 1-1                   [2, 9]                    --
│    └─Attention_mask: 2-1               [2, 2560, 3]              205,040
│    │    └─Tanh: 3-1                    [2, 80, 1000]             --
│    └─Flatten: 2-2                      [2, 7680]                 --
│    └─Embedding: 2-3                    [2, 4]                    76
│    └─Linear: 2-4                       [2, 100]                  768,100
│    └─Actvation: 2-5                    [2, 104]                  --
│    └─Dropout: 2-6                      [2, 104]                  --
│    └─Linear: 2-7                       [2, 9]                    945
│    └─Sigmoid: 2-8                      [2, 9]                    --
==========================================================================================
Total params: 974,161
Trainable params: 974,161
Non-trainable params: 0
Total mult-adds (M): 1.54
==========================================================================================
Input size (MB): 20.49
Forward/backward pass size (MB): 0.00
Params size (MB): 3.08
Estimated Total Size (MB): 23.57
==========================================================================================
…
