…
Resolving data files: 100%|█████████████████████████████████████████████████████████████████████████████████████| 75/75 [00:00<00:00, 344926.32it/s]
Resolving data files: 100%|█████████████████████████████████████████████████████████████████████████████████████| 94/94 [00:00<00:00, 355193.31it/s]
Initializing distributed: GLOBAL_RANK: 1, MEMBER: 2/2
loading the dataset...
embed: torch.Size([2, 2560, 1000])
mask: torch.Size([2, 1000])
==========================================================================================
Layer (type:depth-idx)                   Output Shape              Param #
==========================================================================================
LightningModel                           [2, 9]                    --
├─CustomizedModel: 1-1                   [2, 9]                    --
│    └─Flatten: 2-1                      [2, 7680]                 --
│    └─Embedding: 2-2                    [2, 4]                    76
│    └─Actvation: 2-3                    [2, 104]                  --
│    └─Dropout: 2-4                      [2, 104]                  --
│    └─Linear: 2-5                       [2, 9]                    945
│    └─Sigmoid: 2-6                      [2, 9]                    --
==========================================================================================
Total params: 1,021
Trainable params: 1,021
Non-trainable params: 0
Total mult-adds (M): 0.00
==========================================================================================
Input size (MB): 20.49
Forward/backward pass size (MB): 0.00
Params size (MB): 0.00
Estimated Total Size (MB): 20.49
==========================================================================================
…
