…
/home/sxr280/miniconda3/envs/deeploc_torch/lib/python3.8/site-packages/pytorch_lightning/trainer/connectors/data_connector.py:224: PossibleUserWarning: The dataloader, val_dataloader 0, does not have many workers which may be a bottleneck. Consider increasing the value of the `num_workers` argument` (try 48 which is the number of cpus on this machine) in the `DataLoader` init to improve performance.
  rank_zero_warn(
A shape torch.Size([2, 8000, 3])
==========================================================================================
Layer (type:depth-idx)                   Output Shape              Param #
==========================================================================================
LightningModel                           [2, 9]                    --
├─CustomizedModel: 1-1                   [2, 9]                    --
│    └─Attention_mask: 2-1               [2, 256, 3]               --
│    │    └─Linear: 3-1                  [2, 8000, 80]             20,480
│    │    └─Tanh: 3-2                    [2, 8000, 80]             --
│    │    └─Linear: 3-3                  [2, 8000, 3]              240
│    └─Flatten: 2-2                      [2, 768]                  --
│    └─Embedding: 2-3                    [2, 4]                    76
│    └─Linear: 2-4                       [2, 100]                  76,900
│    └─Actvation: 2-5                    [2, 104]                  --
│    └─Dropout: 2-6                      [2, 104]                  --
│    └─Linear: 2-7                       [2, 9]                    945
│    └─Sigmoid: 2-8                      [2, 9]                    --
==========================================================================================
Total params: 98,641
Trainable params: 98,641
Non-trainable params: 0
Total mult-adds (M): 0.20
==========================================================================================
Input size (MB): 16.45
Forward/backward pass size (MB): 10.63
Params size (MB): 0.39
Estimated Total Size (MB): 27.47
==========================================================================================
…
