…
        0, 0, 1, 1, 0, 1, 0, 0, 0, 0, 0, 1, 0, 1, 1, 0, 0, 0, 0, 1, 0, 0, 0, 0,
        1, 0, 0, 1, 1, 0, 1, 0, 0, 1, 0, 0, 1, 1, 0, 1, 1, 0, 0, 0, 0])
embed: torch.Size([2, 2560, 1000])
mask: torch.Size([2, 1, 1000])
input embedding shape torch.Size([2, 2560, 1000])
embed_output shape: torch.Size([2, 2560, 1000])
mask shape torch.Size([2, 1, 1000])
==========================================================================================
Layer (type:depth-idx)                   Output Shape              Param #
==========================================================================================
LightningModel                           [2, 9]                    --
├─CustomizedModel: 1-1                   [2, 9]                    --
│    └─Attention_mask: 2-1               [2, 2560, 3]              205,040
│    │    └─Tanh: 3-1                    [2, 80, 1000]             --
│    └─Flatten: 2-2                      [2, 7680]                 --
│    └─Embedding: 2-3                    [2, 4]                    76
│    └─Linear: 2-4                       [2, 100]                  768,100
│    └─Actvation: 2-5                    [2, 104]                  --
│    └─Dropout: 2-6                      [2, 104]                  --
│    └─Linear: 2-7                       [2, 9]                    945
│    └─Sigmoid: 2-8                      [2, 9]                    --
==========================================================================================
Total params: 974,161
Trainable params: 974,161
Non-trainable params: 0
Total mult-adds (M): 1.54
==========================================================================================
Input size (MB): 20.49
Forward/backward pass size (MB): 0.00
Params size (MB): 3.08
Estimated Total Size (MB): 23.57
==========================================================================================
…
