…
like so: srun python train_embedding_model.py embedder=nucleotidetransfor ...
  rank_zero_warn(
GPU available: True (cuda), used: True
TPU available: False, using: 0 TPU cores
IPU available: False, using: 0 IPUs
HPU available: False, using: 0 HPUs
Initializing distributed: GLOBAL_RANK: 0, MEMBER: 1/1
==========================================================================================
Layer (type:depth-idx)                   Output Shape              Param #
==========================================================================================
LightningModel                           [2, 9]                    9
├─CustomizedModel: 1-1                   [2, 9]                    --
│    └─MaxPool1d: 2-1                    [2, 2560, 166]            --
│    └─Dropout: 2-2                      [2, 2560, 166]            --
│    └─Attention_mask: 2-3               [2, 2560, 3]              --
│    │    └─Linear: 3-1                  [2, 166, 80]              204,800
│    │    └─Tanh: 3-2                    [2, 166, 80]              --
│    │    └─Linear: 3-3                  [2, 166, 3]               240
│    └─Flatten: 2-4                      [2, 7680]                 --
│    └─Embedding: 2-5                    [2, 4]                    76
│    └─Linear: 2-6                       [2, 100]                  768,100
│    └─Actvation: 2-7                    [2, 104]                  --
│    └─Dropout: 2-8                      [2, 104]                  --
│    └─Linear: 2-9                       [2, 9]                    945
│    └─Sigmoid: 2-10                     [2, 9]                    --
==========================================================================================
Total params: 974,170
Trainable params: 974,170
Non-trainable params: 0
Total mult-adds (M): 1.95
==========================================================================================
Input size (MB): 27.34
Forward/backward pass size (MB): 0.22
Params size (MB): 3.90
Estimated Total Size (MB): 31.46
==========================================================================================
…
