…
        features: ['label', 'idx', 'Xall', 'Xtag', 'ids', 'input_ids', 'embedding', 'attention_mask'],
        num_rows: 3670
    })
    test: Dataset({
        features: ['label', 'idx', 'Xall', 'Xtag', 'ids', 'input_ids', 'embedding', 'attention_mask'],
        num_rows: 4587
    })
})
embeddings shape: torch.Size([2, 768, 1551])
==========================================================================================
Layer (type:depth-idx)                   Output Shape              Param #
==========================================================================================
LightningModel                           [2, 9]                    9
├─CustomizedModel: 1-1                   [2, 9]                    --
│    └─MaxPool1d: 2-1                    [2, 768, 258]             --
│    └─Dropout: 2-2                      [2, 768, 258]             --
│    └─Attention_mask: 2-3               [2, 768, 3]               --
│    │    └─Linear: 3-1                  [2, 258, 80]              61,440
│    │    └─Tanh: 3-2                    [2, 258, 80]              --
│    │    └─Linear: 3-3                  [2, 258, 3]               240
│    └─Flatten: 2-4                      [2, 2304]                 --
│    └─Embedding: 2-5                    [2, 4]                    76
│    └─Linear: 2-6                       [2, 100]                  230,500
│    └─Actvation: 2-7                    [2, 104]                  --
│    └─Dropout: 2-8                      [2, 104]                  --
│    └─Linear: 2-9                       [2, 9]                    945
│    └─Sigmoid: 2-10                     [2, 9]                    --
==========================================================================================
Total params: 293,210
Trainable params: 293,210
Non-trainable params: 0
Total mult-adds (M): 0.59
==========================================================================================
Input size (MB): 9.53
Forward/backward pass size (MB): 0.34
Params size (MB): 1.17
Estimated Total Size (MB): 11.05
==========================================================================================
…
