…
Resolving data files: 100%|████████████████████████████████████████████████████████████████████████████████████████████████████████████████████████████████████████████████████████████████████████████████████████████████████████████████| 77/77 [00:00<00:00, 226163.45it/s]
Initializing distributed: GLOBAL_RANK: 3, MEMBER: 4/4
input embedding shape torch.Size([2, 256, 8000])
embed_output shape: torch.Size([2, 256, 8000])
mask shape torch.Size([2, 1, 8000])
==========================================================================================
Layer (type:depth-idx)                   Output Shape              Param #
==========================================================================================
LightningModel                           [2, 9]                    --
├─CustomizedModel: 1-1                   [2, 9]                    --
│    └─Attention_mask: 2-1               [2, 256, 3]               20,720
│    │    └─Tanh: 3-1                    [2, 80, 8000]             --
│    └─Flatten: 2-2                      [2, 768]                  --
│    └─Embedding: 2-3                    [2, 4]                    76
│    └─Linear: 2-4                       [2, 100]                  76,900
│    └─Actvation: 2-5                    [2, 104]                  --
│    └─Dropout: 2-6                      [2, 104]                  --
│    └─Linear: 2-7                       [2, 9]                    945
│    └─Sigmoid: 2-8                      [2, 9]                    --
==========================================================================================
Total params: 98,641
Trainable params: 98,641
Non-trainable params: 0
Total mult-adds (M): 0.16
==========================================================================================
Input size (MB): 16.45
Forward/backward pass size (MB): 0.00
Params size (MB): 0.31
Estimated Total Size (MB): 16.76
==========================================================================================
…
